C:\Users\marti\Anaconda3\python.exe "C:/Users/marti/Google Drive/Udacity/Self Driving Car/CarND-Projects/Project 3 Cloning with Keras/Test.py"
Using TensorFlow backend.
____________________________________________________________________________________________________
Layer (type)                     Output Shape          Param #     Connected to                     
====================================================================================================
convolution2d_1 (Convolution2D)  (None, 31, 31, 16)    448         convolution2d_input_1[0][0]      
____________________________________________________________________________________________________
convolution2d_2 (Convolution2D)  (None, 15, 15, 16)    2320        convolution2d_1[0][0]            
____________________________________________________________________________________________________
convolution2d_3 (Convolution2D)  (None, 7, 7, 8)       1160        convolution2d_2[0][0]            
____________________________________________________________________________________________________
convolution2d_4 (Convolution2D)  (None, 5, 5, 4)       292         convolution2d_3[0][0]            
____________________________________________________________________________________________________
convolution2d_5 (Convolution2D)  (None, 3, 3, 2)       74          convolution2d_4[0][0]            
____________________________________________________________________________________________________
flatten_1 (Flatten)              (None, 18)            0           convolution2d_5[0][0]            
____________________________________________________________________________________________________
dropout_1 (Dropout)              (None, 18)            0           flatten_1[0][0]                  
____________________________________________________________________________________________________
dense_1 (Dense)                  (None, 128)           2432        dropout_1[0][0]                  
____________________________________________________________________________________________________
dense_2 (Dense)                  (None, 64)            8256        dense_1[0][0]                    
____________________________________________________________________________________________________
dense_3 (Dense)                  (None, 16)            1040        dense_2[0][0]                    
____________________________________________________________________________________________________
dense_4 (Dense)                  (None, 1)             17          dense_3[0][0]                    
====================================================================================================
Total params: 16039
____________________________________________________________________________________________________
Epoch 1/10
  64/8036 [..............................] - ETA: 154s - loss: 0.0148
 128/8036 [..............................] - ETA: 88s - loss: 0.0186 
…
